DQC_R-GCN/phase2_model_optimized.pt (torch, 969230 bytes, 50 tensors)

rgcn.rgcn_layers.0.weight_bases f4 [4, 64, 64]
-0.027662005 0.033555448 0.022548854 0.030142024 -0.031614788 0.0094692595 0.02307935 -0.0020796768
0.0061227046 0.004151527 -0.007928455 0.021001868 -0.022681743 0.020152997 -0.018802531 0.0029472709
-0.013541903 -0.011776807 -0.01727785 1.8581748e-05 -0.0067216232 0.0044922903 -0.0016474761 -0.029368125
-0.017768059 0.0044250786 0.011595592 -0.008262176 -0.013483409 -0.0058081 -0.011216221 0.022112027
0.0159492 0.022708371 -0.021966737 0.03127244 -0.01618889 0.007641226 0.030000448 0.025288101
0.0010312684 0.0003004074 0.02245599 0.00084520876 0.014912445 -0.03479405 0.02367039 -0.034025636
-0.0350005 0.00036280602 0.007881116 -0.003287986 -0.017665656 0.013662793 0.024967998 0.014419816
0.037117563 0.0062206946 0.031466395 0.029926747 -0.02650264 -0.013206778 -0.026730001 -0.0242154
-0.031311274 -0.017944355 -0.026202507 -0.023649853 -0.010206882 -0.030498948 -0.03310527 -0.031231407
-0.009322222 0.028249465 -0.00156698 -0.018379474 0.0029250942 -0.018892536 -0.01120615 -0.0062712897
-0.03530294 0.025915682 -0.032634497 0.009980973 0.013258927 -0.016553322 -0.0012171082 0.034317613
0.030527003 0.0024992302 -0.0036626682 -0.016037002 0.014331218 0.0022304654 0.017461762 0.035568543
-0.03334433 0.021977343 -0.000119403005 0.008187074 0.017334517 -0.02167985 0.008147381 0.019627776
-0.021148091 -0.026247779 -0.007170113 -0.008719921 -0.009153107 0.012199175 0.031836107 0.021923695
-0.035877667 -0.010637274 -0.03237681 0.013245463 -0.0001515001 0.034524694 -0.00034051389 0.022791117
-0.014623886 0.016497754 -0.023084281 0.03182716 -0.03189753 -0.023952266 0.00034954026 -0.023574185
-0.001790043 -0.024469737 -0.0025527775 0.020949773 -0.020484146 0.026263319 0.0023261681 0.03711345
-0.025132209 0.016547464 0.031059429 0.008621823 -0.03409478 0.017562658 0.0340859 0.028189823
-0.02354421 0.014311213 0.016286898 0.010151766 -0.023243127 -0.03158173 -0.030966572 -0.0014995188
0.02680789 -0.012282601 -0.03193086 0.013494253 0.009281818 0.026799478 0.01782887 -0.028872157
0.02442801 0.0038479157 -0.020910894 0.033921205 0.025306039 -0.019263022 0.032319665 -0.028463408
-0.0006923489 0.024765134 0.01904846 -0.02537642 0.016652267 -0.0084241 -0.013793405 0.017531566
-0.02638596 -0.036101032 0.031802215 -0.02613412 -0.017601285 -0.03253522 -0.023795212 -0.031711984
0.0046303943 0.02777671 -0.023762226 0.025848769 -0.011307182 -0.0077061076 -0.030918779 0.023236323
0.0029374026 0.028684244 -0.005575072 -0.030735586 0.021413434 0.017431717 -0.0073634405 0.0075740665
-0.028400104 -0.013950871 0.004112959 0.020297162 -0.03489171 -0.0010367893 -0.018734317 0.0072489902
0.007040482 0.014785156 -0.029513223 0.010167692 0.0011144094 -0.010855185 -0.03258299 0.010694306
-0.025682509 0.015328456 -0.00048464164 0.037014104 0.011628762 -0.03099696 0.020200055 0.0055878423
-0.020823192 -0.016620314 -0.0075066276 0.0072405078 -0.014000542 0.023463313 0.034861475 -0.002632331
0.0117907 0.028115034 0.0010109022 -0.0022898987 -0.0036138445 0.016886685 -0.03062623 -0.024196912
0.027911142 0.03349465 -0.024153318 -0.017134292 0.006583359 -0.0015451573 -0.019202363 -0.007238744
-0.028524935 0.011238463 0.01849997 0.011652328 0.015886884 0.03591557 0.024394032 0.011996791
00000000: 6e9b e2bc 7071 093d 60b8 b83c 68ec f63c
00000010: 827e 01bd f424 1b3c e810 bd3c 304b 08bb
00000020: f8a0 c83b 8809 883b 5ae6 01bc 1c0c ac3c
00000030: 10cf b9bc e617 a53c c407 9abc 0027 413b
00000040: dcde 5dbc 82f3 40bc 478a 8dbc 00e0 9b37
00000050: 1041 dcbb 1034 933b 20f0 d7ba 6c95 f0bc
00000060: 528e 91bc 4000 913b 70fb 3d3c 145e 07bc
00000070: 84e9 5cbc e051 bebb 3ec4 37bc 4824 b53c
00000080: e6a7 823c e806 ba3c 96f3 b3bc 8817 003d
00000090: 909e 84bc 4063 fa3b 80c3 f53c fe28 cf3c
000000a0: a02b 873a 0080 9d39 a0f5 b73c 0091 5d3a
000000b0: 5453 743c 3584 0ebd 68e8 c13c 775e 0bbd
000000c0: af5c 0fbd 0037 be39 cc1f 013c 407b 57bb
000000d0: 91b7 90bc e8d9 5f3c b089 cc3c 1841 6c3c
000000e0: 9608 183d f8d6 cb3b e8e2 003d f028 f53c
000000f0: 111c d9bc 3e61 58bc e0f8 dabc 605f c6bc
00000100: 4040 00bd 0a00 93bc a4a6 d6bc 56bd c1bc
00000110: c43a 27bc eed8 f9bc 6499 07bd 02d9 ffbc
00000120: 3cbc 18bc 6c6b e73c 2063 cdba 8d90 96bc
00000130: f0b2 3f3b 85c4 9abc 009a 37bc 647f cdbb
00000140: d199 10bd 204d d43c c0ab 05bd 3c87 233c
00000150: f83b 593c d59a 87bc 6087 9fba a090 0c3d
00000160: c413 fa3c 20ca 233b 6009 70bb 0860 83bc
00000170: 7ccd 6a3c 002d 123b f80b 8f3c 52b0 113d
00000180: 1094 08bd d409 b43c 0068 fab8 1423 063c
00000190: 1e01 8e3c f199 b1bc 987c 053c 6eca a03c
000001a0: c33e adbc 9505 d7bc 44f3 eabb 00de 0ebc
000001b0: eaf6 15bc 0cdf 473c 9466 023d 5299 b33c
000001c0: 76f4 12bd f647 2ebc 8c9d 04bd 8003 593c
000001d0: 00dc 1eb9 c469 0d3d 0087 b2b9 70b4 ba3c
000001e0: 0699 6fbc 4c26 873c 3f1b bdbc 325d 023d
000001f0: fca6 02bd 8b37 c4bc 8042 b739 a61e c1bc
00000200: e09f eaba c274 c8bc 804c 27bb dc9e ab3c
00000210: 5ece a7bc 2c26 d73c a072 183b 4604 183d
00000220: 10e2 cdbc 8c8e 873c 5870 fe3c 8c42 0d3c
00000230: f8a6 0bbd 90df 8f3c a89d 0b3d 58ee e63c
00000240: c9df c0bc 9479 6a3c 1a6c 853c 9853 263c
00000250: 5f68 bebc d85b 01bd 9cad fdbc 808b c4ba
00000260: 389c db3c f63c 49bc efc9 02bd 0017 5d3c
00000270: c412 183c 948a db3c da0d 923c 4d85 ecbc
00000280: 401d c83c 502d 7c3b 534d abbc f6f0 0a3d
00000290: 9c4e cf3c 7ccd 9dbc a061 043d 182c e9bc
000002a0: c07e 35ba 40e0 ca3c 840b 9c3c 36e2 cfbc
000002b0: 566a 883c 3c05 0abc bcfd 61bc 5c9e 8f3c
000002c0: 5e27 d8bc adde 13bd 0a43 023d 3917 d6bc
000002d0: 9230 90bc a743 05bd 2dee c2bc 6de4 01bd
000002e0: 90ba 973b fc8b e33c 00a9 c2bc ccc0 d33c
000002f0: c241 39bc 8483 fcbb 6149 fdbc 1a5a be3c
00000300: 7081 403b 38fb ea3c 18af b6bb 32c9 fbbc
00000310: 3a6b af3c f6cc 8e3c 0449 f1bb e02f f83b
00000320: 56a7 e8bc 3292 64bc 00c6 863b 3c46 a63c
00000330: 9cea 0ebd e0e4 87ba b678 99bc f088 ed3b
00000340: d8b3 e63b 703d 723c b7c5 f1bc 6496 263c
00000350: 6011 923a f2d9 31bc be75 05bd 2c37 2f3c
00000360: 2064 d2bc 3424 7b3c 8017 feb9 1a9c 173d
00000370: 9086 3e3c 56ed fdbc 967a a53c 381a b73b
00000380: 6695 aabc 5327 88bc 28fa f5bb c841 ed3b
00000390: 8862 65bc 2236 c03c e8ca 0e3d 3083 2cbb
000003a0: c82d 413c 8051 e63c 4080 843a 2012 16bb
000003b0: 40d6 6cbb f255 8a3c dce3 fabc 9a38 c6bc
000003c0: e8a5 e43c b031 093d 2edd c5bc 375d 8cbc
000003d0: 38b9 d73b e086 caba 464e 9dbc fc32 edbb
000003e0: 20ad e9bc 8821 383c 408d 973c 68e9 3e3c
000003f0: 3625 823c 341c 133d fed5 c73c 308e 443c

rgcn.rgcn_layers.0.weight_combs f4 [4, 4]
-0.5143186 0.86433727 0.28652698 0.71572274 0.8048791 -0.67555976 0.527777 -0.5458863
-0.40836486 -0.3119495 -0.0063182116 0.39333993 -0.27366966 -0.5803627 -0.7248622 -0.8484586
00000000: 62aa 03bf 3545 5d3f aab3 923e 9b39 373f
00000010: 8f0c 4e3f 7cf1 2cbf 651c 073f 34bf 0bbf
00000020: 3315 d1be d8b7 9fbe 0009 cfbb da63 c93e
00000030: 6e1e 8cbe a692 14bf 9290 39bf 9534 59bf

rgcn.rgcn_layers.0.weight_self f4 [64, 64]
0.109377995 -0.13567868 0.21501489 0.11242281 -0.04914932 -0.12603453 -0.09253863 0.09459765
0.12094946 -0.08716443 0.19839795 0.041708037 0.04528542 0.053701594 -0.2031346 -0.19758458
-0.0014614612 0.06179236 0.15846406 0.21291794 -0.06785083 -0.14233458 -0.15356922 -0.18613721
-0.041753277 0.12660877 0.20852621 -0.109484315 0.18188383 -0.067031935 -0.14939456 0.08857788
-0.16890715 -0.1438144 0.000113382936 0.08791439 0.0797074 -0.13342096 0.07614167 -0.12469423
-0.09113118 0.088476524 0.06666939 0.021677539 -0.12127542 0.00095146894 0.17441846 -0.008447319
-0.0876095 -0.1773129 0.08746375 -0.13986489 -0.06958118 -0.011978611 0.16827862 -0.16508935
-0.15171924 0.026340753 0.13971554 -0.03575541 -0.07640523 -0.055902034 -0.029176354 0.06780858
0.1352462 -0.012905687 0.12194364 -0.10038115 0.10112409 0.026304856 0.017176598 0.13081188
-0.13962054 -0.21081302 0.029439062 -0.010430962 0.18655027 -0.18906742 -0.00043042004 0.06326412
0.15262438 -0.2133139 0.20609485 -0.13640702 0.03972979 0.14918049 0.16601484 0.057542816
-0.11235083 -0.08599667 0.09326957 -0.13776453 -0.13915655 0.09973763 0.15739013 0.07446827
0.17673467 -0.19937322 0.12880735 -0.15492977 0.10340826 -0.12939131 0.19619773 0.0516745
0.038365528 -0.014543459 -0.0048248917 -0.0402859 0.16960768 0.14645006 -0.011811957 -0.17802237
-0.031367198 -0.13853076 -0.03768982 0.18067096 -0.046186328 0.17466222 -0.05876021 0.059839413
-0.12961625 0.201257 -0.13909298 -0.18749826 0.1549701 -0.20397805 0.12915216 -0.057216927
0.1386538 0.15461491 -0.14325646 0.01773411 0.15238933 0.0030342042 -0.2075097 -0.21561986
-0.06148231 0.09288032 -0.1950488 -0.012828082 -0.2113553 -0.115474746 0.093814984 -0.03914553
0.1535831 -0.18321036 0.08483671 0.03746535 0.19318242 0.17349203 0.121466264 -0.17836396
0.104119614 0.16430591 -0.004664436 -0.07450995 -0.17435908 0.041824266 -0.10969376 -0.12614927
-0.20875354 0.021980613 -0.08019622 -0.036110446 -0.15782174 -0.15974006 0.1480153 0.009794056
0.21381415 -0.17101905 0.00036762655 -0.11439301 -0.11242291 0.10180311 0.10779746 0.14600174
-0.025744766 0.12829868 0.17866687 0.16004907 0.019935265 0.13123526 -0.07675356 -0.1342845
-0.0030089766 0.21249054 -0.107477285 -0.17801619 -0.13396585 -0.03772345 -0.09005265 0.07093875
-0.21416038 -0.16422902 0.10444133 -0.01522091 0.1277784 -0.0032721162 -0.04372345 -0.09723708
-0.021965548 -0.018833727 0.06130244 0.053493574 -0.045969933 -0.049071163 0.20795916 0.0070872605
0.025149077 -0.08792448 -0.010922551 0.0418853 0.20146103 -0.07474582 -0.10278044 -0.16938233
-0.11482101 0.087892994 -0.10123968 0.055184707 -0.097150184 0.17446963 -0.08375099 0.17314689
-0.10990607 -0.11277731 0.114921525 -0.0013913959 -0.08442137 -0.12178745 0.15301855 -0.10972677
0.010703817 0.107339635 0.1983882 -0.071118906 -0.041617468 0.09720616 -0.029732719 0.12704356
0.050635442 0.14524047 0.19031022 0.17645024 -0.023744315 0.15049635 0.003791839 -0.13483194
0.101895645 -0.05143574 0.17645897 0.016012773 0.14653142 -0.058386326 -0.07612307 0.018433243
00000000: 9201 e03d 5aef 0abe dd2c 5c3e ee3d e63d
00000010: cc50 49bd 320f 01be e584 bdbd 6abc c13d
00000020: 5ab4 f73d 4483 b2bd d528 4b3e 0cd6 2a3d
00000030: 347d 393d 34f6 5b3d 8402 50be 9d53 4abe
00000040: 808e bfba fc19 7d3d 6744 223e 2907 5a3e
00000050: 60f5 8abd 28c0 11be 4041 1dbe c19a 3ebe
00000060: 7c05 2bbd bba5 013e e587 553e 5039 e0bd
00000070: c13f 3a3e 0a48 89bd e3fa 18be 5268 b53d
00000080: fff5 2cbe 1544 13be 00c8 ed38 760c b43d
00000090: a23d a33d 819f 08be 2af0 9b3d b05f ffbd
000000a0: fca2 babd 2e33 b53d f689 883d 1895 b13c
000000b0: 3f5f f8bd 006c 793a c19a 323e a066 0abc
000000c0: 9c6c b3bd 8391 35be 3220 b33d be38 0fbe
000000d0: 9480 8ebd f041 44bc 3b51 2c3e 2f0d 29be
000000e0: 4a5c 1bbe 90c8 d73c 9711 0f3e 4474 12bd
000000f0: 587a 9cbd 88f9 64bd 4003 efbc 3adf 8a3d
00000100: fb7d 0a3e 6072 53bc 96bd f93d a294 cdbd
00000110: 261a cf3d 487d d73c f0b5 8c3c 8df3 053e
00000120: b0f8 0ebe 5edf 57be 302a f13c a0e6 2abc
00000130: 0907 3f3e e49a 41be 00aa e1b9 9e90 813d
00000140: 9149 1c3e f66e 5abe 870a 533e 48ae 0bbe
00000150: b4bb 223d c5c2 183e cbff 293e 04b2 6b3d
00000160: 3118 e6bd 061f b0bd 1e04 bf3d 2512 0dbe
00000170: 0e7f 0ebe 3e43 cc3d e12a 213e d282 983d
00000180: eff9 343e 7e28 4cbe 13e6 033e e9a5 1ebe
00000190: b6c7 d33d 287f 04be 0fe8 483e a4a8 533d
000001a0: 2c25 1d3d b047 6ebc 201a 9ebb d402 25bd
000001b0: a3ad 2d3e 01f7 153e f086 41bc 7f4b 36be
000001c0: e47a 00bd 02db 0dbe a460 1abd cf01 393e
000001d0: e02d 3dbd a7da 323e 8cae 70bd 2c1a 753d
000001e0: 1fba 04be 5116 4e3e 646e 0ebe 8bff 3fbe
000001f0: 7bb0 1e3e 9fdf 50be 7740 043e 4c5c 6abd
00000200: 43fb 0d3e 5f53 1e3e d2b1 12be 2047 913c
00000210: f30b 1c3e 80d9 463b 6c7d 54be 74cb 5cbe
00000220: e0d4 7bbd 0a38 be3d dfba 47be e02c 52bc
00000230: 866d 58be 067e ecbd 1222 c03d 1057 20bd
00000240: e344 1d3e 7f9b 3bbe debe ad3d 4475 193d
00000250: 9dd1 453e e5a7 313e 4ec3 f83d 0ba5 36be
00000260: aa3c d53d cf3f 283e 20d8 98bb ac98 98bd
00000270: 308b 32be ec4f 2b3d 1fa7 e0bd 462d 01be
00000280: 7dc3 55be b010 b43c ea3d a4bd 8ce8 13bd
00000290: 069c 21be e692 23be 5391 173e 4077 203c
000002a0: 19f2 5a3e 9e1f 2fbe 00be c039 e246 eabd
000002b0: fc3d e6bd 267e d03d eac4 dc3d 7b81 153e
000002c0: b0e6 d2bc bb60 033e 73f4 363e e7e3 233e
000002d0: 484f a33c 8962 063e f830 9dbd e081 09be
000002e0: 4032 45bb 1f97 593e 0d1d dcbd e049 36be
000002f0: 582e 09be e883 1abd 866d b8bd 5648 913d
00000300: dc4c 5bbe a72b 28be 56e5 d53d 2061 79bc
00000310: 57d8 023e 0071 56bb 5c17 33bd 3c24 c7bd
00000320: 18f1 b3bc 3049 9abc 4418 7b3d 141c 5b3d
00000330: f84a 3cbd d8fe 48bd 3ff3 543e 403c e83b
00000340: 7005 ce3c c011 b4bd 80f4 32bc ec8f 2b3d
00000350: cd4b 4e3e 5614 99bd 8d7e d2bd 9072 2dbe
00000360: 4727 ebbd 3e01 b43d c056 cfbd 5c09 623d
00000370: adf6 c6bd 2ba8 323e a485 abbd 6b4d 313e
00000380: 6f16 e1bd caf7 e6bd fa5b eb3d 805f b6ba
00000390: 1ce5 acbd b36b f9bd e5b0 1c3e 6eb8 e0bd
000003a0: 105f 2f3c e2d4 db3d 4726 4b3e caa6 91bd
000003b0: 1477 2abd 0614 c73d 0892 f3bc b517 023e
000003c0: 1c67 4f3d ebb9 143e afe0 423e 5faf 343e
000003d0: 7083 c2bc b71b 1a3e 8080 783b 6211 0abe
000003e0: aaae d03d 48ae 52bd a9b1 343e 382d 833c
000003f0: 550c 163e 8026 6fbd 6ae6 9bbd 5001 973c

rgcn.rgcn_layers.0.bias f4 [64]
0.0 0.0 0.0 0.0 0.0 0.0 0.0 0.0
0.0 0.0 0.0 0.0 0.0 0.0 0.0 0.0
0.0 0.0 0.0 0.0 0.0 0.0 0.0 0.0
0.0 0.0 0.0 0.0 0.0 0.0 0.0 0.0
0.0 0.0 0.0 0.0 0.0 0.0 0.0 0.0
0.0 0.0 0.0 0.0 0.0 0.0 0.0 0.0
0.0 0.0 0.0 0.0 0.0 0.0 0.0 0.0
0.0 0.0 0.0 0.0 0.0 0.0 0.0 0.0
00000000: 0000 0000 0000 0000 0000 0000 0000 0000
00000010: 0000 0000 0000 0000 0000 0000 0000 0000
00000020: 0000 0000 0000 0000 0000 0000 0000 0000
00000030: 0000 0000 0000 0000 0000 0000 0000 0000
00000040: 0000 0000 0000 0000 0000 0000 0000 0000
00000050: 0000 0000 0000 0000 0000 0000 0000 0000
00000060: 0000 0000 0000 0000 0000 0000 0000 0000
00000070: 0000 0000 0000 0000 0000 0000 0000 0000
00000080: 0000 0000 0000 0000 0000 0000 0000 0000
00000090: 0000 0000 0000 0000 0000 0000 0000 0000
000000a0: 0000 0000 0000 0000 0000 0000 0000 0000
000000b0: 0000 0000 0000 0000 0000 0000 0000 0000
000000c0: 0000 0000 0000 0000 0000 0000 0000 0000
000000d0: 0000 0000 0000 0000 0000 0000 0000 0000
000000e0: 0000 0000 0000 0000 0000 0000 0000 0000
000000f0: 0000 0000 0000 0000 0000 0000 0000 0000

rgcn.rgcn_layers.1.weight_bases f4 [4, 64, 64]
0.010006845 0.026925765 0.010588951 0.016315792 -0.023670837 -0.011676848 0.0111195 0.031064458
0.009851109 0.032705545 -0.015666418 0.0077217817 -0.0070301536 0.021892447 -0.014211422 -0.0134104155
0.017462693 0.010044534 0.0030914024 -0.0009856373 -0.029303417 0.027686968 0.031638816 -0.03490579
-0.019635016 0.0032905117 -0.03185248 -0.0049961545 -0.0045285076 0.009018458 0.030646205 0.017994974
-0.032839995 -0.01749166 -0.028812114 -0.020614203 0.029496066 -0.003397137 -0.019623982 0.009041816
-0.028321937 0.009338092 -0.0024942346 -0.029312171 0.032097936 0.031648874 -0.007559208 -0.014621001
0.01265952 -0.0007672608 0.018288463 0.034121 0.023423404 0.025276527 -0.021940913 0.025290683
0.0041554607 -0.017754674 -0.021853276 0.0029705241 -0.033557933 -0.014732299 -0.0071981493 -0.029400773
-0.0318899 0.019314446 -0.028910458 -0.0066388417 0.029278055 -0.0011504181 0.016518146 0.031502984
-0.028256979 -0.016273238 0.0334151 0.008418713 0.0024216808 0.03432402 0.023941074 -0.010827325
0.014993481 0.0029260702 -0.013248727 0.0015749559 0.01831824 0.010185342 -0.016612811 -0.035115395
0.003298875 0.0031380318 0.0043529756 -0.037007395 0.025531039 0.030684851 0.000558909 0.006456472
-0.01699898 -0.035425182 0.02370217 0.0063657574 0.016560577 -0.015999807 -0.020317176 -0.035277903
-0.026863974 0.025487967 -0.004302591 0.020043291 -0.032418292 -0.02206295 0.030077472 -0.017995395
-0.031783596 -0.025166526 0.029245019 0.018287312 -0.013466377 -0.019348541 -0.035254955 -0.0028597414
0.017793436 0.0128022395 0.019754846 -0.015608124 0.035767056 -0.009308554 0.019500073 -0.025462106
0.034608193 -0.020082481 -0.023102831 0.029306427 -0.015103176 -0.032033898 -0.016147323 0.020425275
-0.018557854 0.0008247234 -0.032644715 -0.009716094 -0.010235356 0.018024497 0.030097298 -0.0053301565
-0.02572323 0.019699145 -0.015880262 0.015406512 0.03037382 0.0062962063 -0.03531036 -0.009281797
-0.016420847 0.025694914 -0.020271422 0.0025448054 0.021415766 0.007784821 0.015335817 0.012061156
-0.014142485 -0.03276965 -0.009936567 0.023607727 -0.008833913 -0.014454411 -0.02397883 0.017963644
-0.033768907 -0.01674275 -0.007280169 -0.032022804 -0.006334316 0.034177303 -0.0036674552 0.030204609
-0.031312868 0.02527342 0.027494095 -0.0176673 0.012911852 -0.021251803 -0.00975083 0.021119155
0.017261319 -0.007165784 -0.036643017 0.01637217 -0.0077525396 -0.0007895604 -0.031702466 0.016166892
0.017012361 -0.009393478 -0.013547422 0.0117651895 -0.022185136 -0.022973605 0.0030033663 0.017443705
-0.02408741 -0.026504107 0.02699484 -0.015362943 -0.02676138 -0.035517856 0.023279876 0.008449193
-0.019270223 -0.015036156 0.034711674 -0.036361597 -0.034437787 -0.0070119575 -0.030908886 0.0029241852
-0.021991812 -0.0131919235 -0.008003326 -0.0032288358 -0.031580202 0.015483979 0.030121349 0.024486378
0.007841021 0.012491509 0.005860094 0.029250436 -0.028891783 0.02140724 -0.020396903 0.011251081
-0.028512817 -0.004670609 0.0252975 -0.007841319 0.009550471 -0.00038544834 0.0019429922 -0.021775935
-0.00090110675 0.0061721057 0.015474781 -0.005467262 0.037124455 0.0120137185 0.008146614 0.02394082
0.007968951 0.00742957 -0.027328823 -0.021882894 0.0027906895 -0.0067953076 0.0016413331 0.012419477
00000000: c0f3 233c 6c93 dc3c 487d 2d3c b2a8 853c
00000010: 58e9 c1bc 4050 3fbc 902e 363c e47a fe3c
00000020: 8c66 213c 40f6 053d dc56 80bc 0007 fd3b
00000030: 345d e6bb ca57 b33c 06d7 68bc 5cb7 5bbc
00000040: ec0d 8f3c d491 243c 2099 4a3b 8030 81ba
00000050: b80d f0bc c8cf e23c b497 013d 60f9 0ebd
00000060: 9dd9 a0bc a0a5 573b bf77 02bd c8b6 a3bb
00000070: e063 94bb 28c2 133c c00d fb3c 326a 933c
00000080: 3b83 06bd ab4a 8fbc 6207 ecbc 1edf a8bc
00000090: bca1 f13c 80a2 5ebb 79c2 a0bc 2024 143c
000000a0: 6803 e8bc ccfe 183c 5076 23bb 1420 f0bc
000000b0: 2079 033d 40a2 013d 3cb3 f7bb ec8c 6fbc
000000c0: e069 4f3c 0022 49ba b0d1 953c 76c2 0b3d
000000d0: 70e2 bf3c b810 cf3c 6ebd b3bc 682e cf3c
000000e0: 882a 883b 4072 91bc a405 b3bc 20ad 423b
000000f0: 0b74 09bd be5f 71bc 74de ebbb e4d9 f0bc
00000100: fc9e 02bd 5439 9e3c a0d5 ecbc a48a d9bb
00000110: 88d8 ef3c a0c9 96ba 1051 873c 4609 013d
00000120: 2e7b e7bc 744f 85bc 46de 083d a4ee 093c
00000130: 10b5 1e3b 5897 0c3d 1220 c43c 1865 31bc
00000140: 38a7 753c 50c3 3f3b 3011 59bc c06e ce3a
00000150: 2210 963c 6ce0 263c 9717 88bc 29d5 0fbd
00000160: f031 583b 70a7 4d3b 68a3 8e3b 1195 17bd
00000170: 7826 d13c cc5e fb3c c083 123a d090 d33b
00000180: 7241 8bbc ff19 11bd 0e2b c23c d897 d03b
00000190: 0caa 873c 0712 83bc 3570 a6bc 907f 10bd
000001a0: d611 dcbc 24cc d03c c0fc 8cbb d431 a43c
000001b0: 0bc9 04bd 5cbd b4bc 0865 f63c 146b 93bc
000001c0: 842f 02bd 082a cebc 4093 ef3c 46cf 953c
000001d0: 14a2 5cbc d580 9ebc 8067 10bd 806a 3bbb
000001e0: 8ac3 913c 7cc0 513c ead4 a13c 38b9 7fbc
000001f0: 7a80 123d e882 18bc 9ebe 9f3c e895 d0bc
00000200: 52c1 0d3d 0484 a4bc 2642 bdbc 0814 f03c
00000210: 5073 77bc fa35 03bd 6447 84bc e852 a73c
00000220: a406 98bc 4032 583a 77b6 05bd 4030 1fbc
00000230: 32b2 27bc 1ca8 933c 9c8e f63c 98a8 aebb
00000240: 86b9 d2bc 1a60 a13c 5317 82bc 986b 7c3c
00000250: 84d2 f83c 6850 ce3b 99a1 10bd ae12 18bc
00000260: 0385 86bc 247e d23c 4110 a6bc c0c6 263b
00000270: 1e70 af3c d017 ff3b 1443 7b3c 289c 453c
00000280: e2b5 67bc 7839 06bd fccc 22bc fe64 c13c
00000290: 1ebc 10bc 32d2 6cbc 406f c4bc 7e28 933c
000002a0: 4451 0abd 1728 89bc 7c8e eebb 582a 03bd
000002b0: 1890 cfbb 80fd 0b3d b059 70bb a86f f73c
000002c0: ec41 00bd 340a cf3c 4c3b e13c 03bb 90bc
000002d0: 3c8c 533c 4318 aebc f2c1 1fbc 1402 ad3c
000002e0: 9c67 8d3c f4ce eabb fd16 16bd ee1e 863c
000002f0: 0409 febb 80fa 4eba 72da 01bd 6e70 843c
00000300: 825d 8b3c 1ae7 19bc 02f6 5dbc c8c2 403c
00000310: 9abd b5bc 2433 bcbc 20d4 443b 1ae6 8e3c
00000320: f652 c5bc 241f d9bc 4824 dd3c dab4 7bbc
00000330: ae3a dbbc 2c7b 11bd 70b5 be3c 7c6e 0a3c
00000340: 96dc 9dbc 365a 76bc d42d 0e3d e6ef 14bd
00000350: a30e 0dbd 90c4 e5bb a234 fdbc b0a3 3f3b
00000360: 2c28 b4bc f022 58bc 6220 03bc e09a 53bb
00000370: 3e5a 01bd 84b0 7d3c 0cc1 f63c a897 c83c
00000380: a077 003c 30a9 4c3c 0806 c03b 9c9e ef3c
00000390: 76ae ecbc 3c5e af3c 6817 a7bc 7456 383c
000003a0: b693 e9bc e80b 99bb b43c cf3c e078 00bc
000003b0: 9479 1c3c 0016 cab9 00ac fe3a 7263 b2bc
000003c0: 4038 6cba 603f ca3b f089 7d3c b826 b3bb
000003d0: d00f 183d 30d5 443c 6079 053c 8a1f c43c
000003e0: 3490 023c c073 f33b b2e0 dfbc c143 b3bc
000003f0: 00e4 363b 2cab debb 0022 d73a 107b 4b3c

rgcn.rgcn_layers.1.weight_combs f4 [4, 4]
-0.27584565 0.27438074 0.43977326 0.6032608 -0.18419236 0.25102288 -0.1236974 0.8563704
0.6669863 0.21406788 0.80112666 0.004883468 -0.64855355 0.45810586 0.015571833 0.57320505
00000000: a43b 8dbe a27b 8c3e f629 e13e 4d6f 1a3f
00000010: ec9c 3cbe 1286 803e 1055 fdbd 173b 5b3f
00000020: 9dbf 2a3f 9c34 5b3e a316 4d3f 8005 a03b
00000030: 9b07 26bf da8c ea3e 0021 7f3c 91bd 123f

rgcn.rgcn_layers.1.weight_self f4 [64, 64]
-0.12326175 -0.015080124 -0.09242156 0.09150855 0.16910939 -0.033233583 0.16566737 0.08561869
0.1323639 0.12519498 -0.14762864 -0.13545649 -0.12357265 0.013639376 -0.17778642 0.20453088
0.018451437 0.21309619 -0.042674154 0.09887819 0.1019115 0.00806123 -0.11560823 0.090980574
0.17538889 0.005985573 -0.11655229 -0.025591612 -0.13629577 -0.09793482 -0.17912096 0.017588958
0.024765626 0.15529825 -0.07578735 -0.19967844 0.19165273 0.19211932 0.15641518 0.021690235
0.17067479 0.21286301 0.04714735 0.034577355 -0.025909424 -0.18207413 0.08250199 -0.15612827
-0.032849923 0.18872596 0.20371176 -0.008135363 0.00018076599 -0.12833375 -0.026905745 -0.1238883
0.21219529 0.073252216 -0.12796697 0.21248497 0.053479627 0.2161866 -0.09960805 0.16906367
0.0029972643 0.2011493 -0.1467095 -0.054579213 0.20122968 0.1403083 -0.15543112 -0.062008798
0.05763136 0.006082982 0.034093156 0.15838785 0.20468406 0.077003226 -0.18126646 -0.13365732
0.20371152 -0.095517054 0.19085465 0.17554961 -0.21130577 -0.18222257 -0.16047102 -0.19918972
0.07926975 0.11662559 0.072913334 0.082724854 -0.13226044 -0.04176785 0.034625843 0.019966304
-0.14168142 -0.031106368 -0.14238673 0.053410575 0.0022253245 -0.12997502 0.04185237 0.11562584
-0.19174679 0.014999285 -0.14366978 0.17333423 0.18978043 0.031481862 0.063416734 0.020308986
-0.11858085 -0.20050532 -0.1522351 0.03128682 -0.19981024 0.17264815 0.15930308 -0.06115614
-0.08708574 0.08132081 -0.11403315 0.034426227 -0.15501647 0.07247104 -0.03396973 -0.08607584
0.08096652 0.1915562 0.15528981 0.072619006 -0.1578917 0.09954904 -0.21125036 0.045760766
0.10294886 -0.12727842 -0.0769528 0.013060957 0.091128424 0.1370904 0.0013454556 -0.11236188
-0.20760055 -0.099838324 -0.1396969 0.029015347 -0.13454807 -0.17434229 -0.087954596 -0.11753339
-0.18680127 0.11219995 0.16630702 -0.16923432 -0.09923015 -0.19503015 -0.21574298 0.03653507
-0.050679713 -0.1639001 -0.055993363 -0.071195975 -0.11146969 0.08297427 0.21318023 0.16396777
-0.15751615 -0.003113538 -0.02346018 0.10606073 -0.034249097 0.031137466 -0.14601615 -0.037114084
-0.04340829 -0.19943877 -0.12595734 0.18871795 0.20059453 0.1547492 0.15648647 0.12310849
0.09037332 -0.11826419 -0.14107804 -0.1476022 -0.19903477 0.051809683 -0.08169308 -0.08418843
0.08870621 0.02590476 0.15354176 0.19399627 -0.13250113 -0.012071162 -0.205233 -0.018640012
-0.15426043 0.14977853 0.10326649 0.11497919 -0.10110558 -0.025245711 -0.08875276 0.021348283
-0.02323176 0.07347445 -0.13861834 -0.10456718 -0.16210517 -0.034440294 0.1870354 -0.13901448
0.2131009 -0.18792796 0.18234201 -0.17921379 0.09041135 0.06924258 0.18381225 0.09516694
0.035829082 -0.11949662 -0.20852149 -0.06922242 0.21553914 -0.09437204 0.15098588 -0.15978917
0.13683121 -0.096420206 -0.07187194 0.21351008 0.11718531 0.13566564 0.19213913 0.107559696
-0.19547372 0.13965996 0.103768155 0.12446673 -0.045083225 0.05375977 0.03936036 -0.035893887
-0.15667039 0.13003053 0.023712307 -0.045396447 0.16304873 -0.0926771 -0.10309441 -0.026216865
00000000: a870 fcbd a012 77bc 8447 bdbd d668 bb3d
00000010: 032b 2d3e f01f 08bd b5a4 293e da58 af3d
00000020: 678a 073e 1d33 003e f62b 17be 1bb5 0abe
00000030: a813 fdbd b077 5f3c a50d 36be 8b70 513e
00000040: 7827 973c e335 5a3e 18cb 2ebd a680 ca3d
00000050: fab6 d03d 4013 043c 02c4 ecbd 0654 ba3d
00000060: 2599 333e a022 c43b f8b2 eebd 80a5 d1bc
00000070: 1e91 0bbe 0d92 c8bd 7c6b 37be b816 903c
00000080: 48e1 ca3c 8106 1f3e 6636 9bbd 8178 4cbe
00000090: 9d40 443e edba 443e 4d2b 203e b8af b13c
000000a0: 5fc5 2e3e c3f8 593e 941d 413d fca0 0d3d
000000b0: 0040 d4bc a471 3abe cef6 a83d 17e0 1fbe
000000c0: a48d 06bd 6141 413e d199 503e 304a 05bc
000000d0: 008c 3d39 ec69 03be 7069 dcbc 26b9 fdbd
000000e0: b949 593e 4205 963d c609 03be a995 593e
000000f0: 740d 5b3d 0560 5d3e 4eff cbbd 071f 2d3e
00000100: c06d 443b 15fa 4d3e 043b 16be 748e 5fbd
00000110: 270f 4e3e fbac 0f3e 5629 1fbe f0fc 7dbd
00000120: dc0e 6c3d c053 c73b 44a5 0b3d 6d30 223e
00000130: b398 513e deb3 9d3d ea9d 39be 77dd 08be
00000140: c199 503e 729e c3bd 676f 433e 47c3 333e
00000150: 8a60 58be 8e98 3abe 8452 24be 64f8 4bbe
00000160: 2e58 a23d 66d9 ee3d 9653 953d a66b a93d
00000170: 486f 07be c414 2bbd d4d3 0d3d 6090 a33c
00000180: ef14 11be c8d2 febc d4cd 11be 0cc5 5a3d
00000190: c0d6 113b 2c18 05be 646d 2b3d 3ecd ec3d
000001a0: 4559 44be 90bf 753c 2c1e 13be 877e 313e
000001b0: cd55 423e 20f3 003d a2e0 813d 085f a63c
000001c0: 84da f2bd 4451 4dbe 85e3 1bbe 9c26 003d
000001d0: 0e9b 4cbe adca 303e 5920 233e dc7e 7abd
000001e0: 025a b2bd 868b a63d 368a e9bd 8402 0d3d
000001f0: a3bc 1ebe b26b 943d d823 0bbd 8848 b0bd
00000200: c6d1 a53d 4f27 443e 4b04 1f3e 46b9 943d
00000210: 5dae 21be 5ee0 cb3d 0452 58be a46f 3b3d
00000220: dad6 d23d 4655 02be 6e99 9dbd a0fd 553c
00000230: 8aa1 ba3d 6d61 0c3e 005a b03a fc1d e6bd
00000240: 3d95 54be 0978 ccbd b40c 0fbe 98b1 ed3c
00000250: f8c6 09be c986 32be 8a21 b4bd 59b5 f0bd
00000260: d548 3fbe 16c9 e53d 634c 2a3e c34b 2dbe
00000270: 2d39 cbbd fcb5 47be baeb 5cbe cca5 153d
00000280: 8895 4fbd 6ed5 27be 4c59 65bd 32cf 91bd
00000290: 394a e4bd 6aee a93d eb4b 5a3e 2be7 273e
000002a0: ea4b 21be 800c 4cbb 902f c0bc 5e36 d93d
000002b0: c848 0cbd 0014 ff3c 4285 15be f004 18bd
000002c0: e4cc 31bd ad39 4cbe f6fa 00be 473f 413e
000002d0: a768 4d3e 9376 1e3e fd3d 203e 4e20 fc3d
000002e0: a615 b93d 7f34 f2bd c376 10be 0825 17be
000002f0: c5cf 4bbe 6436 543d b44e a7bd fc6a acbd
00000300: 9aab b53d 3836 d43c 0d3a 1d3e f5a6 463e
00000310: 60ae 07be 20c6 45bc 9928 52be f0b2 98bc
00000320: 72f6 1dbe 8b5f 193e 627d d33d 367a eb3d
00000330: 7110 cfbd 18d0 cebc 02c4 b5bd 98e2 ae3c
00000340: 8850 bebc c679 963d f7f1 0dbe 5127 d6bd
00000350: e6fe 25be 4411 0dbd 3586 3f3e d059 0ebe
00000360: 1f37 5a3e 3070 40be ddb7 3a3e d283 37be
00000370: 9629 b93d 0ecf 8d3d 4739 3c3e e2e6 c23d
00000380: 84c1 123d a5ba f4bd a886 55be 7cc4 8dbd
00000390: 4bb6 5c3e 2146 c1bd 0b9c 1a3e c69f 23be
000003a0: 7b1d 0c3e f577 c5bd 9831 93bd 63a2 5a3e
000003b0: dafe ef3d efeb 0a3e 1fc0 443e 4248 dc3d
000003c0: 432a 48be 0503 0f3e 6684 d43d 6ae8 fe3d
000003d0: 30a9 38bd 3433 5c3d 5438 213d 7805 13bd
000003e0: 346e 20be b926 053e 5040 c23c a0f1 39bd
000003f0: 3ff6 263e 7ecd bdbd 2923 d3bd c0c4 d6bc

rgcn.rgcn_layers.1.bias f4 [64]
0.0 0.0 0.0 0.0 0.0 0.0 0.0 0.0
0.0 0.0 0.0 0.0 0.0 0.0 0.0 0.0
0.0 0.0 0.0 0.0 0.0 0.0 0.0 0.0
0.0 0.0 0.0 0.0 0.0 0.0 0.0 0.0
0.0 0.0 0.0 0.0 0.0 0.0 0.0 0.0
0.0 0.0 0.0 0.0 0.0 0.0 0.0 0.0
0.0 0.0 0.0 0.0 0.0 0.0 0.0 0.0
0.0 0.0 0.0 0.0 0.0 0.0 0.0 0.0
00000000: 0000 0000 0000 0000 0000 0000 0000 0000
00000010: 0000 0000 0000 0000 0000 0000 0000 0000
00000020: 0000 0000 0000 0000 0000 0000 0000 0000
00000030: 0000 0000 0000 0000 0000 0000 0000 0000
00000040: 0000 0000 0000 0000 0000 0000 0000 0000
00000050: 0000 0000 0000 0000 0000 0000 0000 0000
00000060: 0000 0000 0000 0000 0000 0000 0000 0000
00000070: 0000 0000 0000 0000 0000 0000 0000 0000
00000080: 0000 0000 0000 0000 0000 0000 0000 0000
00000090: 0000 0000 0000 0000 0000 0000 0000 0000
000000a0: 0000 0000 0000 0000 0000 0000 0000 0000
000000b0: 0000 0000 0000 0000 0000 0000 0000 0000
000000c0: 0000 0000 0000 0000 0000 0000 0000 0000
000000d0: 0000 0000 0000 0000 0000 0000 0000 0000
000000e0: 0000 0000 0000 0000 0000 0000 0000 0000
000000f0: 0000 0000 0000 0000 0000 0000 0000 0000

rgcn.gate_proj.weight f4 [64, 2]
0.5681707 -0.70025665 -0.49313718 -0.37179977 0.5081689 0.40972704 0.5595613 0.39323837
-0.42490995 0.20424694 0.5769865 0.002571404 -0.6854998 0.6645091 -0.5829116 0.09675658
0.18980646 -0.39172637 0.08088368 -0.058815062 0.60300297 0.5095249 0.3227219 0.30202383
0.60911924 0.14397049 -0.17009372 -0.08941716 0.6432161 -0.5476311 0.0057674646 -0.6773943
-0.44932503 -0.46176904 -0.31118122 0.42027777 -0.5779385 -0.6841949 0.3327543 -0.26172543
0.2922268 -0.6056945 0.5624067 -0.55018437 -0.45680287 0.39038032 0.41573113 -0.62818897
0.51268953 0.18496507 0.39873427 0.15486777 -0.0049524903 -0.5768865 0.07607818 0.30154043
-0.5719627 0.4757046 0.28385937 -0.07318151 -0.65904295 0.39750475 0.05310005 0.5179122
-0.011812091 0.6199034 -0.4625755 -0.02824831 0.100314915 -0.43760887 -0.0686304 -0.22213513
-0.5761713 0.07419348 0.47452575 0.6703717 0.5117062 0.08224696 -0.41925207 0.10335106
0.102184 0.66452736 0.16175419 -0.6404687 0.288365 0.22783232 0.030088663 -0.5890941
-0.64556813 -0.44326735 -0.08933681 -0.5850036 0.5652309 -0.2389648 0.4652825 0.1542939
-0.3565276 -0.123287976 0.2034958 -0.14156479 -0.62484 0.044585824 0.34634978 0.53435725
0.42229062 0.21015304 0.22853982 0.20962292 0.606692 0.40803593 0.19510895 0.001027286
-0.39886224 0.0862599 -0.17007273 -0.54346126 -0.5435571 0.33797282 -0.14171338 0.1400513
0.44513875 0.18535507 0.6670745 0.56897634 -0.13919419 -0.695184 -0.47160637 0.50443095
00000000: a373 113f 0544 33bf 7a7c fcbe 8a5c bebe
00000010: 5b17 023f bec7 d13e 693f 0f3f 8a56 c93e
00000020: cc8d d9be 1c26 513e 63b5 133f 0085 283b
00000030: ea7c 2fbf 451d 2a3f b239 15bf 5028 c63d
00000040: a05c 423e 5c90 c8be 58a6 a53d 10e8 70bd
00000050: 675e 1a3f 3970 023f ce3b a53e dea2 9a3e
00000060: 3def 1b3f 006d 133e 0c2d 2ebe 5820 b7bd
00000070: cfa9 243f 8d31 0cbf 00fd bc3b b669 2dbf
00000080: ee0d e6be fe6c ecbe 2553 9fbe a62e d73e
00000090: c7f3 13bf 6627 2fbf c65e aa3e e000 86be
000000a0: c09e 953e cb0e 1bbf e3f9 0f3f e2d8 0cbf
000000b0: 11e2 e9be eedf c73e b6da d43e fed0 20bf
000000c0: 9f3f 033f 7c67 3d3e e626 cc3e a895 1e3e
000000d0: 8048 a2bb d5ae 13bf e0ce 9b3d 8263 9a3e
000000e0: 266c 12bf 8e8f f33e 0456 913e 30e0 95bd
000000f0: 0ab7 28bf be85 cb3e 707f 593d e595 043f
00000100: 8087 41bc fdb1 1e3f b2d6 ecbe 0069 e7bc
00000110: e871 cd3d 450e e0be 188e 8cbd 6477 63be
00000120: f67f 13bf c0f2 973d 0af5 f23e 7b9d 2b3f
00000130: 2dff 023f 1871 a83d 35a8 d6be b8a9 d33d
00000140: d845 d13d 771e 2a3f e4a2 253e c2f5 23bf
00000150: 94a4 933e e04c 693e 807c f63c dfce 16bf
00000160: f443 25bf f0f3 e2be 38f6 b6bd ccc2 15bf
00000170: f9b2 103f 30b3 74be 8239 ee3e 38ff 1d3e
00000180: c98a b6be 687e fcbd 3461 503e 5cf6 10be
00000190: 84f5 1fbf a09f 363d c254 b13e a3cb 083f
000001a0: 7a36 d83e 5c32 573e 5806 6a3e 64a7 563e
000001b0: 2b50 1b3f 16ea d03e a4ca 473e 00a6 863a
000001c0: ac37 ccbe 08a9 b03d 8c27 2ebe 4720 0bbf
000001d0: 8f26 0bbf c60a ad3e 501d 11be 9c69 0f3e
000001e0: 3ae9 e33e b8cd 3d3e 65c5 2a3f 6fa8 113f
000001f0: ec88 0ebe 94f7 31bf 6476 f1be 6322 013f

rgcn.gate_proj.bias f4 [64]
-0.32641605 -0.57544255 0.11738396 -0.23882207 0.5527503 0.14867789 0.6594252 0.6351976
0.25362968 -0.4686607 0.392608 -0.6375954 0.17831618 0.5625743 0.27247083 0.5656226
-0.31249106 0.043296695 -0.6528517 -0.37054142 -0.30410334 0.043519735 -0.6181762 0.34042126
0.58664685 0.106307745 -0.5890561 0.66556734 -0.123878 0.41852862 0.28386444 0.053319216
-0.29280722 0.0035077333 -0.364855 -0.38513198 0.5543911 0.4304492 -0.5799151 -0.61387944
0.33245784 -0.3883715 -0.30549628 -0.31035614 -0.050046325 0.28282154 -0.122653246 -0.40410525
-0.14422339 -0.5618724 0.69285566 0.18187124 -0.50716543 -0.6475978 0.6975352 -0.18646985
0.06586796 0.279539 0.058617234 -0.3237312 -0.45674875 0.37373048 0.3047548 -0.66610944
00000000: 0120 a7be 3450 13bf 0067 f03d c68d 74be
00000010: 0b81 0d3f 043f 183e 17d0 283f 4f9c 223f
00000020: c0db 813e 4cf4 efbe ea03 c93e 7439 23bf
00000030: 8498 363e df04 103f 4c81 8b3e a5cc 103f
00000040: d4fe 9fbe e057 313d 4a21 27bf 9bb7 bdbe
00000050: 6fb3 9bbe c041 323d cc40 1ebf b24b ae3e
00000060: 7d2e 163f e0b7 d93d 61cc 16bf 9f62 2a3f
00000070: c0b3 fdbd 6249 d63e ae56 913e 4065 5a3d
00000080: d4ea 95be 00e2 653b 46ce babe 0530 c5be
00000090: 93ec 0d3f d663 dc3e 5175 14bf 3427 1dbf
000000a0: ea37 aa3e a1d8 c6be 026a 9cbe 00e7 9ebe
000000b0: 60fd 4cbd fccd 903e a031 fbbd e2e6 cebe
000000c0: 4caf 13be dfd6 0fbf fd5e 313f 743c 3a3e
000000d0: 98d5 01bf f8c8 25bf ab91 323f f4f1 3ebe
000000e0: c8e5 863d bc1f 8f3e a018 703d 19c0 a5be
000000f0: f9da e9be 9a59 bf3e d208 9c3e 2686 2abf

rgcn.qubit_proj.weight f4 [64, 4]
-0.25109327 -0.1949606 0.33709294 -0.16509372 -0.12694949 -0.14287871 -0.17899913 -0.2534337
-0.38042945 -0.14635485 -0.034522057 0.22857505 0.2648126 0.11430693 0.17472106 -0.32231575
-0.1946435 0.025059044 0.29103678 -0.27944338 -0.14994222 -0.24554914 -0.3212241 0.35431874
0.3700322 -0.30976915 0.21352494 -0.44944322 0.020485759 -0.38499236 -0.18871504 -0.29709446
-0.20749342 0.25700885 0.18610036 -0.06375885 0.47994035 0.041278183 -0.34498096 -0.11974138
-0.1979233 0.13243026 -0.12699467 0.006372094 -0.21409357 -0.38347876 0.34414 0.06490302
-0.2939149 -0.113360584 0.40196908 0.3975522 -0.20846415 0.36099648 0.00064098835 0.023967922
-0.24272478 0.39694637 0.26797068 0.15379906 0.26331687 -0.38309735 0.16209495 0.40178275
0.14510411 0.014072299 -0.23761612 0.22970998 0.36941665 -0.29104155 0.42797452 0.12347484
0.4569555 0.38419724 -0.021157146 0.45768762 0.017080367 -0.42565274 -0.29592907 0.27788055
0.32362998 -0.013397932 -0.40135914 -0.47649848 0.3854187 -0.31907016 0.39615083 0.22998524
-0.4077047 0.43101245 -0.45732546 -0.23698169 0.2300682 -0.33784962 -0.47062457 -0.4753297
0.34532875 0.29864675 0.015363455 0.112324655 -0.37837344 0.30070883 0.28940117 -0.07294762
-0.4710819 -0.0036082864 0.38680297 -0.11949575 0.3684762 0.38611442 0.45936608 0.29408723
0.15056247 0.12662399 0.47682965 0.070482194 -0.088945925 -0.14641654 -0.3562128 0.32967895
0.13063222 -0.36280537 -0.00084620714 0.26321936 0.025111258 0.15383631 -0.018561304 0.2728021
0.33742034 0.21368778 0.1747691 0.41942716 -0.15247065 0.26933676 -0.14866453 -0.099954784
-0.24345899 -0.13728797 0.3213837 0.33872116 -0.1566928 0.24211836 -0.28536063 0.22740698
-0.23233187 -0.36198062 0.29025435 -0.21075845 0.41583985 -0.44144398 0.38675958 0.040956378
0.45117092 -0.36655802 0.31715757 0.010422766 0.14641893 -0.49520373 -0.42343688 -0.42163247
0.2672475 -0.34337443 -0.05106628 -0.16267276 -0.18552703 0.4124534 -0.08065212 0.48732102
-0.26232892 0.28254586 -0.14617038 -0.11247879 0.30988175 -0.42257428 -0.47486806 0.22844821
-0.36834967 -0.49032307 0.17337316 -0.37434292 -0.31503946 -0.06276518 0.17478794 -0.06297773
-0.4216857 0.42377454 0.22382718 -0.0008918047 -0.3234915 -0.45422304 -0.06933379 -0.12439114
-0.116199315 0.017997324 0.3487113 0.025670052 -0.4650004 -0.085422754 0.31258178 0.030653298
0.12809837 -0.055013955 0.13934839 0.3622781 -0.24728274 0.27586532 -0.14680886 0.19215482
-0.040448546 0.432321 0.34349012 0.32774287 -0.45019728 -0.4812299 -0.15043825 -0.10105395
0.15960765 -0.2246232 0.21247017 -0.31199616 0.28251392 -0.26143944 -0.32879388 0.02783686
0.16726482 0.1594497 0.3314253 -0.11133814 0.26894617 0.0015921593 0.14423853 0.09659779
0.05377817 -0.14971668 -0.039916217 -0.10043454 0.10811943 0.33561438 0.25041538 0.46230567
0.16781199 -0.34373915 0.16847444 -0.053640306 0.18726957 0.33135492 -0.1129809 0.021314204
0.20092243 -0.4410389 0.4989267 -0.3931278 -0.36779362 -0.4458784 0.4034385 -0.19130576
00000000: 4c8f 80be c0a3 47be 7297 ac3e 540e 29be
00000010: 0cff 01be cc4e 12be 8c4b 37be 10c2 81be
00000020: a6c7 c2be 0cde 15be 0067 0dbd 940f 6a3e
00000030: 8495 873e c019 ea3d 14ea 323e 9206 a5be
00000040: a050 47be a048 cd3c c602 953e 3413 8fbe
00000050: 748a 19be 3c71 7bbe 7c77 a4be 4469 b53e
00000060: dc74 bd3e 109a 9ebe 48a6 5a3e 6c1d e6be
00000070: c0d1 a73c b81d c5be 843e 41be c41c 98be
00000080: 2879 54be aa96 833e 1891 3e3e 0094 82bd
00000090: beba f53e 5013 293d 58a1 b0be f83a f5bd
000000a0: 68ac 4abe cc9b 073e e40a 02be 00cd d03b
000000b0: 583b 5bbe 5457 c4be 1e33 b03e e0eb 843d
000000c0: 047c 96be 9829 e8bd e4ce cd3e f68b cb3e
000000d0: a077 55be 88d4 b83e 0008 283a 6058 c43c
000000e0: d88c 78be 8e3c cb3e 7433 893e 807d 1d3e
000000f0: 78d1 863e 5625 c4be 38fc 253e 78b6 cd3e
00000100: 2c96 143e 808f 663c a451 73be 1839 6b3e
00000110: 2e24 bd3e 6603 95be 7a1f db3e 60e0 fc3d
00000120: 12f6 e93e 80b5 c43e c051 adbc 0856 ea3e
00000130: 20ec 8b3c 28ef d9be 0484 97be 5c46 8e3e
00000140: d4b2 a53e 0083 5bbc f27e cdbe 9cf7 f3be
00000150: 9a55 c53e 2a5d a3be 48d4 ca3e 4081 6b3e
00000160: acbe d0be aaad dc3e 9026 eabe 54ab 72be
00000170: 0097 6b3e a0fa acbe b4f5 f0be 6a5e f3be
00000180: eece b03e 3ae8 983e 00b7 7b3c 780a e63d
00000190: 2aba c1be 82f6 993e 642c 943e 9065 95bd
000001a0: a631 f1be 0079 6cbb 0a0b c63e 30ba f4bd
000001b0: eaa8 bc3e cab0 c53e 0832 eb3e 9a92 963e
000001c0: 0c2d 1a3e b8a9 013e 0423 f43e f858 903d
000001d0: 4829 b6bd 38ee 15be 8661 b6be aecb a83e
000001e0: 74c4 053e a0c1 b9be 00d4 5dba b0c4 863e
000001f0: 20b6 cd3c 4487 1d3e e00d 98bc b8ac 8b3e
00000200: 5cc2 ac3e f8d0 5a3e acf6 323e 28bf d63e
00000210: 4421 1cbe 82e6 893e 843b 18be 18b5 ccbd
00000220: 504d 79be 3895 0cbe 688c a43e dc6c ad3e
00000230: 1474 20be e0ed 773e ca1a 92be 60dd 683e
00000240: 68e8 6dbe 8655 b9be 389c 943e 10d1 57be
00000250: f6e8 d43e f204 e2be 5a05 c63e e0c1 273d
00000260: e0ff e63e 7ead bbbe 7a62 a23e 40c4 2a3c
00000270: d8ee 153e 588b fdbe b8cc d8be 36e0 d7be
00000280: aad4 883e c6ce afbe e02a 51bd b093 26be
00000290: ccfa 3dbe 182d d33e f02c a5bd 2482 f93e
000002a0: fa4f 86be daa9 903e b0ad 15be 485b e6bd
000002b0: d2a8 9e3e a85b d8be e821 f3be 54ee 693e
000002c0: 5498 bcbe a00b fbbe bc88 313e e0a9 bfbe
000002d0: da4c a1be 088b 80bd 9cfb 323e 78fa 80bd
000002e0: 30e7 d7be faf8 d83e f432 653e 00c8 69ba
000002f0: aea0 a5be ec8f e8be e0fe 8dbd c8c0 febd
00000300: e8f9 edbd 206f 933c 4a8a b23e 004a d23c
00000310: 8814 eebe 20f2 aebd b80a a03e a01c fb3c
00000320: 382c 033e 5056 61bd 58b1 0e3e 847c b93e
00000330: b037 7dbe 383e 8d3e 1055 16be 3cc4 443e
00000340: 60ad 25bd 2e59 dd3e f0dd af3e eacd a73e
00000350: 4280 e6be c463 f6be 7c0c 1abe 60f5 cebd
00000360: 3070 233e a003 66be c891 593e f6bd 9fbe
00000370: aaa5 903e 64db 85be ac57 a8be 200a e43c
00000380: 7847 2b3e c846 233e 94b0 a93e 4005 e4bd
00000390: 50b3 893e 00b0 d03a 44b3 133e 10d5 c53d
000003a0: 8046 5c3d 544f 19be 307f 23bd a0b0 cdbd
000003b0: b86d dd3d a6d5 ab3e 7236 803e 54b3 ec3e
000003c0: e8d6 2b3e 94fe afbe 9084 2c3e f0b5 5bbd
000003d0: 98c3 3f3e 5aa7 a93e 8862 e7bd 209b ae3c
000003e0: 9cbe 4d3e dacf e1be 5273 ff3e 0c48 c9be
000003f0: 724f bcbe 2c4a e4be 7e8f ce3e a8e5 43be

rgcn.qubit_proj.bias f4 [64]
-0.24508369 0.3753873 0.16886204 -0.48120582 0.15018457 0.41374218 0.2026676 0.25583863
-0.10778934 -0.10882455 0.04426533 0.46479553 0.4487415 0.3645835 -0.16212356 0.20291293
-0.10240483 0.39534503 -0.0077264905 0.396877 -0.44825816 -0.4913622 0.17821997 -0.45924383
0.10183126 0.44416755 0.37777686 0.13025647 0.4598056 0.0040718317 0.40489423 -0.21683621
-0.25661552 -0.083553255 -0.27735287 -0.375349 -0.17597151 -0.45622516 -0.24473077 0.410834
-0.22055918 0.030608654 -0.0628925 0.01513201 -0.10225177 -0.34243304 0.09829712 0.45582587
0.05688119 -0.27984416 -0.15514702 0.014704466 0.48718315 -0.3448373 -0.43014377 0.47233284
-0.17721653 0.008871436 -0.46091616 0.2785493 -0.05974114 -0.08766669 -0.2840349 0.29442823
00000000: 38f7 7abe c432 c03e 2cea 2c3e 9c60 f6be
00000010: fcc9 193e 04d6 d33e 1888 4f3e 48fd 823e
00000020: a8c0 dcbd 68df debd 904f 353d aef9 ed3e
00000030: 72c1 e53e b0aa ba3e b803 26be 68c8 4f3e
00000040: a0b9 d1bd aa6a ca3e 802e fdbb 7633 cb3e
00000050: 1882 e5be d493 fbbe 4c7f 363e 0222 ebbe
00000060: e88c d03d ee69 e33e f86b c13e f461 053e
00000070: a46b eb3e 006d 853b 4c4e cf3e 500a 5ebe
00000080: 1c63 83be f81d abbd 3201 8ebe be2d c0be
00000090: e031 34be 5896 e9be b49a 7abe d658 d23e
000000a0: 44da 61be 00bf fa3c c8cd 80bd 40ec 773c
000000b0: 6069 d1bd 6253 afbe 0050 c93d 0262 e93e
000000c0: 40fc 683d bc47 8fbe dcde 1ebe 00eb 703c
000000d0: 1270 f93e 848e b0be ce3b dcbe 9cd5 f13e
000000e0: 4078 35be 8059 113c 34fd ebbe 049e 8e3e
000000f0: 20b3 74bd 988a b3bd 066d 91be 4cbf 963e

rgcn.qpu_proj.weight f4 [64, 2]
-0.45611084 0.57169527 -0.3097302 0.38658446 0.41618115 0.63549274 -0.20697522 -0.48563883
0.13786966 -0.20987108 -0.036735356 -0.09312934 -0.34869182 -0.0093618035 -0.5832255 0.5087479
0.3470878 -0.048981726 -0.26162976 -0.5323606 0.18326008 -0.41734004 -0.088623345 0.03566742
0.41150802 -0.4072275 0.4700715 -0.28845793 0.5058381 -0.1899432 -0.17348301 -0.61579514
-0.17787421 -0.32078877 0.20921427 -0.28850275 0.407278 -0.25595653 0.38618404 0.09237301
-0.6212877 -0.6771823 -0.27950415 -0.2812921 0.19352669 -0.12861246 -0.2957532 0.18584532
0.035813212 -0.62833774 -0.6779605 0.14527178 -0.017708898 -0.28895837 0.30404478 -0.033068836
0.011431992 0.61880404 0.09381205 0.32015628 -0.260048 0.6619292 0.26201737 -0.24974772
0.057785332 0.553978 -0.081854224 -0.3683428 0.30096906 0.24820304 0.22542399 0.6255707
0.3097126 0.5376155 0.546572 -0.4874558 -0.28247246 -0.30118406 0.027024984 0.5189119
-0.17580861 -0.690114 -0.3195558 0.19859016 0.1872958 -0.4719367 0.14375591 0.12950504
-0.13519293 -0.37309822 0.17740196 -0.5792923 -0.3299969 -0.6077712 -0.13714248 -0.2383487
0.42100006 -0.45192355 0.50828665 -0.14414853 0.31548983 -0.6544154 0.16193426 0.5027022
0.30075532 0.43387824 0.25167495 -0.4723758 -0.0048545003 -0.09178901 0.67519504 -0.24087656
0.43070024 0.26406813 0.0909611 0.186885 -0.11350483 0.545059 0.51973027 -0.66796005
0.09833503 0.13693678 -0.4637689 -0.25809053 -0.17567211 0.6304825 -0.585226 -0.61376685
00000000: 5c87 e9be 9f5a 123f f594 9ebe 66ee c53e
00000010: b215 d53e a7af 223f 50f1 53be a7a5 f8be
00000020: b42d 0d3e 72e8 56be d077 16bd 98ba bebd
00000030: bc87 b2be 4062 19bc 444e 15bf 4d3d 023f
00000040: 7eb5 b13e 10a1 48bd 56f4 85be c948 08bf
00000050: 88a8 3b3e 98ad d5be 2880 b5bd 0018 123d
00000060: 2eb1 d23e 1f80 d0be 36ad f03e c2b0 93be
00000070: 9b7e 013f 7880 42be 88a5 31be c0a4 1dbf
00000080: a824 36be 6d3e a4be 443c 563e a2b6 93be
00000090: be86 d03e bc0c 83be eab9 c53e 102e bd3d
000000a0: b60c 1fbf d25b 2dbf 2b1b 8fbe 8505 90be
000000b0: dc2b 463e fcb2 03be f76c 97be 3c4e 3e3e
000000c0: e0b0 123d beda 20bf d28e 2dbf 20c2 143e
000000d0: 4012 91bc 5af2 93be c2ab 9b3e 3073 07bd
000000e0: 404d 3b3c f169 1e3f 8820 c03d 86eb a33e
000000f0: 0325 85be 3174 293f 2427 863e debd 7fbe
00000100: 50b0 6c3d 81d1 0d3f 30a3 a7bd 6d97 bcbe
00000110: 9e18 9a3e f028 7e3e 8cd5 663e 6725 203f
00000120: a692 9e3e 2ba1 093f 25ec 0b3f ce93 f9be
00000130: 3ba0 90be cc34 9abe 8063 dd3c 69d7 043f
00000140: 2c07 34be 50ab 30bf d19c a3be 385b 4b3e
00000150: 78ca 3f3e b0a1 f1be c034 133e f89c 043e
00000160: 0470 0abe bb06 bfbe dca8 353e 804c 14bf
00000170: 5bf5 a8be e596 1bbf 146f 0cbe ae11 74be
00000180: 528d d73e 8662 e7be 131f 023f ac9b 13be
00000190: e287 a13e c587 27bf 18d2 253e 17b1 003f
000001a0: 9afc 993e 4a25 de3e 8adb 803e 3edb f1be
000001b0: 8012 9fbb e0fb bbbd 95d9 2c3f 58a8 76be
000001c0: be84 dc3e f033 873e d049 ba3d c85e 3f3e
000001d0: 3875 e8bd fd88 0b3f 0b0d 053f 6eff 2abf
000001e0: e063 c93d 2839 0c3e 1e73 edbe 7124 84be
000001f0: 64e3 33be 4d67 213f 5fd1 15bf d31f 1dbf

rgcn.qpu_proj.bias f4 [64]
-0.37753773 0.43681043 -0.66409093 -0.23050877 -0.18292451 -0.013753295 0.50196964 -0.39845732
-0.05681783 0.5983117 0.32572764 -0.39525947 0.113476455 -0.45235023 -0.2378495 0.0028370619
0.5017486 0.60884017 0.22294378 -0.61688 0.3657413 0.39275151 -0.1980846 -0.13713545
0.2017942 0.49132615 -0.6021422 -0.5109183 0.68568903 0.49505347 -0.33329692 -0.5063187
0.45359606 0.43467706 0.37337273 -0.16996819 0.38260204 -0.660334 0.026786625 -0.21012059
0.43126184 0.49060637 0.025321424 -0.28910977 0.4355865 0.27047855 0.5386898 0.59796983
0.26634997 -0.5973275 0.100951254 0.33147997 0.098908365 0.17089301 -0.32302508 -0.38068616
-0.14746827 -0.3185048 0.46303838 -0.041215062 -0.56201863 -0.53856003 -0.47945207 0.670782
00000000: a04c c1be 9ea5 df3e dd01 2abf 7e0a 6cbe
00000010: 9050 3bbe 8055 61bc 1581 003f 9902 ccbe
00000020: d0b9 68bd f52a 193f c6c5 a63e 735f cabe
00000030: 5866 e83d 739a e7be d28e 73be 00ee 393b
00000040: 9972 003f f3dc 1b3f 604b 643e d9eb 1dbf
00000050: 7242 bb3e ba16 c93e b0d6 4abe 3c6d 0cbe
00000060: 24a3 4e3e 1a8f fb3e fe25 1abf 8bcb 02bf
00000070: 5189 2f3f a677 fd3e e5a5 aabe 1a9e 01bf
00000080: be3d e83e fe8d de3e b62a bf3e 240c 2ebe
00000090: 6ae4 c33e a60b 29bf a06f db3c da29 57be
000000a0: 5ace dc3e c230 fb3e e06e cf3c 3206 94be
000000b0: 3205 df3e 2a7c 8a3e 93e7 093f 8d14 193f
000000c0: 065f 883e 74ea 18bf 88bf ce3d beb7 a93e
000000d0: 7890 ca3d 94fe 2e3e 8b63 a5be 4ce9 c2be
000000e0: ec01 17be 1013 a3be 5e13 ed3e 20d1 28bd
000000f0: 74e0 0fbf 12df 09bf be7a f5be 5fb8 2b3f
